Group1_kws_a.tflite (tflite, 28400 bytes, 11 tensors)

unknown_17 f4 [8]
000000 8e 01 03 3d cf 80 2c 3d 9c ef 9e bd f6 8b ed bc
       0.031983905 0.04211503 -0.077605456 -0.028997403
000010 89 fa 31 bd 92 71 af 3d bd 88 35 bc 40 61 8d 3c
       -0.04345182 0.08566584 -0.011079964 0.017258286

sequential/batch_normalization/FusedBatchNormV3;StatefulPartitionedCall/sequential/batch_normalization/FusedBatchNormV3 f4 [76]
000000 38 64 9f 3c 02 eb 11 bd d9 5c 7f be 4e 71 d3 be
       0.019456968 -0.03562451 -0.24937762 -0.41297382
000010 30 93 b2 be 23 13 8e be cb 46 dc be 34 b1 b7 be
       -0.3487792 -0.27748975 -0.4302276 -0.35877383
000020 15 fa 4f 3e 22 2a d1 3e 40 a4 aa 3c 30 9b 76 be
       0.20310242 0.40852457 0.020830274 -0.24082637
000030 78 a8 06 be 12 8a 33 be d8 11 0b be f7 57 db be
       -0.13150203 -0.17533138 -0.13581026 -0.4284055
000040 a0 e4 4d bc 5c b4 a4 3e d6 1e 53 bd 76 06 d7 3e
       -0.0125667155 0.32168853 -0.05154308 0.41997117
000050 b5 6d f6 bd 84 22 5a 3d 8c f3 2b 3f 88 72 c0 3e
       -0.12032644 0.053255573 0.671685 0.3758738
000060 78 ce 77 3e 5c c5 6a 3d 06 69 37 3e 40 3a 6e be
       0.24199855 0.057317123 0.17911157 -0.23264408
000070 9e d5 bc be 3b 62 6a be 87 ba 14 3f 5a ab ca be
       -0.36881727 -0.22889034 0.5809712 -0.39583856
000080 9c a4 21 3e 0c 3e 4d 3e c2 85 65 be 08 fd 8e 3e
       0.1578545 0.200432 -0.22414306 0.27927423
000090 a6 13 84 be b1 c9 ca bd a0 d1 83 be bc 89 9f bd
       -0.2579624 -0.09901751 -0.2574587 -0.077899426
0000a0 dc 17 4e be 80 e0 8a bd c1 2a 2d 3e 18 f4 bb bc
       -0.20126289 -0.06781101 0.1691084 -0.022943541
0000b0 ee 48 b9 3e b8 b1 a8 3e 0c 33 f9 3e 62 8c f8 bd
       0.36188453 0.3294809 0.48671758 -0.12136151
0000c0 e0 09 4c be fd 65 fa bd 17 cc 81 3e 14 f7 b7 3e
       -0.19925642 -0.12226484 0.2535102 0.35930693
0000d0 f4 35 a9 be 58 12 fa 3c 20 a4 87 3e 08 75 02 3f
       -0.33048975 0.030526325 0.26492405 0.50959826
0000e0 38 f5 83 be f3 25 ba 3d d7 b5 ef 3d 47 ec 2c be
       -0.25773025 0.090892695 0.11704605 -0.16887008
0000f0 ac 62 86 be 86 f0 4d be 51 6a 81 3e 9f 0f 3d be
       -0.26247156 -0.20111284 0.25276425 -0.1846299
000100 39 39 32 be f6 17 8e be 9f 96 ba 3e a7 ff 2a be
       -0.17404641 -0.27752656 0.3644304 -0.16699086
000110 5a 8c a6 3e 86 c0 eb 3e 48 66 82 3e b2 55 9e bd
       0.32528955 0.4604532 0.2546866 -0.07731189
000120 08 6f 1b 3d 04 a9 59 3e 9a a2 cb be a8 8d 05 3f
       0.037947685 0.2125588 -0.39772493 0.52169275

sequential/batch_normalization_2/FusedBatchNormV3;StatefulPartitionedCall/sequential/batch_normalization_2/FusedBatchNormV3 f4 [76]
000000 57 f2 d7 bf 44 60 61 bf 84 3e 8c bf fa 3e ba 3e
       -1.6870831 -0.88037515 -1.0956578 0.36376172
000010 69 43 06 c0 78 44 41 bf dc 55 16 c0 b0 d4 eb bf
       -2.0978644 -0.754951 -2.3489904 -1.8424282
000020 97 7d 8a bf 28 b2 0a c0 57 1e d0 bf 7a 2f 9b bf
       -1.0819577 -2.1671238 -1.6259259 -1.2123864
000030 3f 72 47 be af a7 ad bf d8 92 8a bf b2 2c 82 bf
       -0.19477175 -1.3566798 -1.0826063 -1.016989
000040 42 6c 27 bf c2 83 29 bf f2 ce 30 bf c0 4c 66 bf
       -0.65399563 -0.6621667 -0.69065773 -0.8996086
000050 bc 77 55 bf 55 ac b8 bf b6 09 34 bf 78 39 30 c0
       -0.83385825 -1.4427592 -0.7032732 -2.7535076
000060 8b 54 29 be 65 ba e9 bf ee 8c bb bf 50 12 89 bf
       -0.16536157 -1.8260008 -1.4652383 -1.0708714
000070 aa a3 b6 bf 69 b0 ca bf cf 4e df bf e6 23 b4 bd
       -1.4268696 -1.5835086 -1.7445925 -0.087959096
000080 96 a4 d2 bf 8c 25 93 be 16 98 40 3f e0 e1 4b bf
       -1.6456478 -0.28739583 0.75232065 -0.7964153
000090 82 59 12 3f 42 51 cc bf e5 da 89 bf d6 fb f0 bf
       0.5716783 -1.5962298 -1.0769926 -1.8826854
0000a0 73 9f 4c bf 3c f8 05 bd 09 1b e5 bf 20 69 12 c0
       -0.799308 -0.032707438 -1.7898875 -2.2876663
0000b0 fa 28 96 be 13 fe d7 bf 36 7c b9 be 44 c7 01 c0
       -0.29328138 -1.6874412 -0.36227578 -2.0277872
0000c0 a4 5c 00 bf fc f8 76 bf e8 59 c6 bf 8c 91 ec 3e
       -0.5014136 -0.9647367 -1.5496187 0.46204793
0000d0 37 94 e7 3f af 77 f4 bf 24 16 07 c0 7a c0 86 bf
       1.8092107 -1.9099025 -2.1107264 -1.0527489
0000e0 2b f6 37 3e 32 c8 e5 bf ca a7 33 bf c6 bb 88 bf
       0.17965 -1.795172 -0.701779 -1.0682304
0000f0 ed fb 81 bf ea 9d 06 c0 fc 86 8d bf d7 08 ff bf
       -1.0155007 -2.1033883 -1.1056819 -1.9924573
000100 af 83 ca bf e0 71 df bf b0 05 a5 bf c0 e9 55 3b
       -1.5821437 -1.7456627 -1.2892361 0.0032640547
000110 9d ac 8f bf f4 26 b7 bf 18 37 ee 3c b1 84 dc bf
       -1.1224552 -1.4308763 0.029079005 -1.7227994
000120 1e 42 1c be f0 60 5d 3d 36 b3 65 bf c9 b5 5c be
       -0.15259597 0.054047525 -0.8972658 -0.2155372

sequential/dense/MatMul;StatefulPartitionedCall/sequential/dense/MatMul f4 [8, 76]
000000 c3 34 12 bf fe c2 9c be 7b 3a 14 3f 12 7c a3 be
       -0.5711176 -0.30617517 0.57901734 -0.31930596
000010 47 a5 e9 3d 30 10 2c 3f 98 13 29 bf 9a a0 30 3f
       0.11408477 0.672122 -0.6604552 0.6899506
000020 2a 56 3b bf f9 a1 04 3f 5f 1f 0e bf e0 79 5f 3e
       -0.7317835 0.5180965 -0.5551662 0.21823835
000030 e3 e6 3a bf d0 fa 95 bc 47 30 e5 3e dc 7a 05 3f
       -0.73008555 -0.018308073 0.44763395 0.52140594
000040 d6 55 06 be 74 fb c8 be ee 4c d3 be d2 c8 61 3e
       -0.13118681 -0.39254344 -0.4126963 0.22049263
000050 36 31 5f 3e c1 33 13 3e 5f bb 08 bf b4 f2 42 3f
       0.21796116 0.14375211 -0.53410906 0.76151586
000060 cc ee 26 3f 79 bf 23 bf c3 2f ce be 24 f1 13 bf
       0.65208125 -0.6396404 -0.40270814 -0.57789826
000070 6d 3d 14 3e e5 ec 11 bf e5 d9 0f 3f 72 f5 cc be
       0.14476557 -0.570021 0.56191856 -0.4003101
000080 c5 a6 95 3e 72 d0 d0 3e 14 c2 4a be f2 d9 1c bf
       0.29228798 0.4078403 -0.19800597 -0.6127006
000090 87 63 1e 3e 1e 2b ab bc f9 90 0a be b3 dd 27 3f
       0.15467654 -0.020894583 -0.13531865 0.6557266
0000a0 8a a4 c8 be d3 e0 fd 3e 54 2f cb bd 5e 27 0c 3f
       -0.39188033 0.4958559 -0.099211365 0.5474757
0000b0 c4 c6 b0 be 29 c1 2f 3f db 12 79 bd 49 c0 94 be
       -0.34526646 0.68654114 -0.060808998 -0.29052952
0000c0 4d 35 1a be 82 f5 13 bf 39 0e 9b be e9 27 ca 3d
       -0.15059395 -0.5779649 -0.3028429 0.098708935
0000d0 69 54 0e 3e d8 da 9c be fe 36 ea 3d 63 a5 df bd
       0.13899387 -0.30635715 0.1143627 -0.10920217
0000e0 77 d0 b2 be 67 3b fb be 3a 2b 45 be 58 96 82 be
       -0.3492467 -0.49068758 -0.19254771 -0.25505328
0000f0 32 c3 2a 3f 56 de f7 be e9 67 07 3f e2 44 35 bf
       0.66704094 -0.48411816 0.5289293 -0.7080823
000100 3c e7 0a 3f d2 6f 11 bf 05 c1 2c 3f 05 a2 22 3e
       0.54259086 -0.5681125 0.67482024 0.15882118
000110 2e c7 f0 bd 90 66 29 bf 54 3a 52 be 40 05 c5 be
       -0.117567405 -0.6617212 -0.20530063 -0.38480568
000120 fe e4 ea 3d 69 7e 83 be d0 e4 90 be 37 11 e6 bd
       0.11469458 -0.2568238 -0.2829957 -0.11233752
000130 0f 21 54 be 48 95 8a be 0c c0 38 3f f7 86 ff 3e
       -0.20715736 -0.27067018 0.7216804 0.49907658
000140 c9 9e f1 be a1 1a b0 bd 35 65 72 3e 57 e1 b0 bb
       -0.47191456 -0.08598829 0.2367142 -0.0053979564
000150 85 70 f9 be 28 3d 69 be 12 c2 f1 be 3d e7 0a bf
       -0.48718658 -0.22777236 -0.47218376 -0.5425909
000160 c6 9e 58 bd 37 5f 47 be 78 09 80 3e 9b 5e ac be
       -0.052885793 -0.19469915 0.25007224 -0.33665928
000170 03 a7 d9 3e 93 67 14 bf fb be 54 3e b1 bd ac be
       0.42510232 -0.5797054 0.20775978 -0.33738473
000180 d6 e7 c5 be 8a 38 16 3f 4e 61 ee 3c 89 fb 5d be
       -0.3865344 0.5868002 0.029099133 -0.21677984
000190 d2 a8 c1 be 1e 54 19 bf ce 26 f9 3e 21 40 40 be
       -0.37824112 -0.5989398 0.48662418 -0.18774463
0001a0 c5 2d ac 3e 68 ff 4b bd 57 51 ea be bc 17 0e 3f
       0.3362867 -0.04980412 -0.45765182 0.55504966
0001b0 72 93 df 3e 27 e8 eb bd 95 5c 0c 3f f9 67 e4 3e
       0.4366718 -0.11518889 0.5482877 0.44610575
0001c0 99 83 dc 3e 34 ac 8b be 51 3b b8 bd 08 80 7f be
       0.4306915 -0.27279818 -0.08995689 -0.24951184
0001d0 c2 08 dc bd 2f e3 fa 3e ec 96 02 bf 12 ae 0b bf
       -0.10743858 0.49001452 -0.5101154 -0.54562485
0001e0 4d 3f 84 3e 9f cf e9 3e bd cf 09 bf 84 ee f5 3e
       0.25829545 0.45666215 -0.5383261 0.48033535
0001f0 31 ce 93 bd 05 a4 dc be 9e 15 47 bf e7 a6 7f be
       -0.07217062 -0.43093887 -0.7776736 -0.24966012
000200 32 cf 39 be 49 9c e8 be b2 c8 ad be 29 20 ad 3e
       -0.18145445 -0.45431736 -0.3394218 0.338136
000210 fc de f2 3e d7 a4 19 3e 45 c7 9e bd fa 97 8c be
       0.4743575 0.15004288 -0.077528514 -0.274597
000220 21 ce fe bd 88 fb 0a 3f a2 8b bc bd 12 9d c8 3e
       -0.1244166 0.54290056 -0.0920632 0.39182335
000230 25 a9 a4 be 3b e0 2d 3e 3e ec 91 3e 9d 12 a6 bd
       -0.32160297 0.16980068 0.2850055 -0.08109019
000240 0b 00 93 3e fd 6c 01 3f 99 57 e5 bc db 44 d4 be
       0.2871097 0.5055693 -0.027995871 -0.41458783
000250 10 7b 70 bd 91 a0 c7 3e 01 39 31 bf c3 54 84 be
       -0.05871111 0.3898969 -0.69227606 -0.25845918
000260 8d cc 67 bd 75 e6 93 3d a1 3d f6 3d 8b 48 de be
       -0.05659156 0.072216906 0.120234735 -0.4341472
000270 f3 00 b0 3e d8 af f8 bd 89 f4 10 3f 4e 97 07 bf
       0.34375724 -0.121429145 0.5662313 -0.5296525
000280 6b 85 ed bd 85 51 0c 3f 0d 89 b0 be ff 99 32 be
       -0.11597713 0.5481189 -0.3447956 -0.17441557
000290 9f 78 bd 3e 47 1c 0f 3f 6e 08 4f bf 80 30 01 3f
       0.3700609 0.5590252 -0.8087224 0.5046463
0002a0 bd 2b e8 bc 10 b6 01 bf 31 88 0d bf ba b4 0c 3f
       -0.028341169 -0.5066843 -0.55285937 0.54963267
0002b0 3c 12 07 bf 8d 43 00 3e a1 c7 2c 3f c6 82 07 3d
       -0.527622 0.12525769 0.6749211 0.0330837
0002c0 59 ca ec be 21 b1 04 3f c9 be 19 3f 1e dd eb be
       -0.4624813 0.5183278 0.6005674 -0.46067137
0002d0 df fd 85 3e a2 49 c2 3c fc f2 a0 b7 fd 87 ce bd
       0.2617025 0.023716751 -1.9186635e-05 -0.100845315
0002e0 af af 29 bf 12 ac 56 be 51 7f 2a 3d 9d 80 ae 3d
       -0.66283697 -0.20964077 0.041625325 0.08520625
0002f0 41 69 c5 be aa 11 aa be 7d 14 38 be ea 0c e3 3e
       -0.38556865 -0.33216602 -0.17976566 0.4434579
000300 d4 c4 a6 bd d0 ec 0f bf cb 12 04 3f 9c 7b 21 bf
       -0.08143011 -0.5622072 0.51591176 -0.6307924
000310 a9 9a 63 be cd 34 93 bd b7 6f 05 bf 7c e4 80 3e
       -0.22226967 -0.07187805 -0.5212359 0.2517432
000320 e8 3c 61 bb f0 19 6c 3e 93 f2 0b 3f 24 67 d4 be
       -0.0034368578 0.2305677 0.54667014 -0.4148494
000330 54 97 b4 3e ad 51 fc be e4 b7 0a 3e 20 04 0f 3d
       0.35271704 -0.49281064 0.13546711 0.034916043
000340 4a 8c ac be 03 21 26 3e 27 d0 01 3f 3f 91 a4 be
       -0.33700782 0.1622353 0.5070824 -0.32142064
000350 0c 41 a9 be 32 e7 a9 3d 78 8e 7c be c1 45 c3 3e
       -0.3305744 0.0829605 -0.24663723 0.38139156
000360 30 a7 12 bf fe 38 dd 3e cb 81 00 3f fb 9f 10 3f
       -0.5728636 0.43207544 0.5019805 0.5649411
000370 c1 0b 9c 3c e4 93 c3 3e b7 95 89 3e f7 69 0f bf
       0.019048573 0.3819877 0.26872036 -0.56021065
000380 7d 7f ea be a7 ea f2 be 32 cb c7 bd c4 b3 87 3e
       -0.4580039 -0.4744465 -0.09755553 0.26504338
000390 b1 1f 8f 3e 35 52 11 bf 5e 89 60 be 74 13 b9 be
       0.27953866 -0.5676606 -0.21927401 -0.36147654
0003a0 9a 1d ea 3e 83 c7 a1 3e ae 74 ad be a1 e1 c6 be
       0.4572571 0.31597528 -0.33878082 -0.38844016
0003b0 db b3 a2 bd 6a 72 f0 be f6 53 0b 3e 83 c7 1b be
       -0.07944461 -0.4696229 0.13606247 -0.15212826
0003c0 52 b9 1a 3f c7 74 17 3f 0c be 71 bb 9d 13 d3 3e
       0.60439026 0.59162563 -0.0036886958 0.412259
0003d0 3b 3a f7 be 14 05 3c 3f 28 59 23 be 93 bc 39 3f
       -0.48286614 0.7344525 -0.15951979 0.72553366
0003e0 ef ca 28 3f bb a7 83 be 22 c3 5d 3e 61 8e 3d be
       0.6593465 -0.25713906 0.21656469 -0.18511344
0003f0 fe 8d 19 3e ba 0c 27 3e af da bc be 5c 40 24 3e
       0.14995572 0.16313449 -0.36885592 0.16040176

sequential/batch_normalization_1/FusedBatchNormV3;StatefulPartitionedCall/sequential/batch_normalization_1/FusedBatchNormV3 f4 [76]
000000 5a 84 3a 3f d0 1c 66 bd db f0 9d 3e f5 5f 5f 3e
       0.728582 -0.05617982 0.3084782 0.21813948
000010 bf 83 04 3f d7 e0 79 3d 5b ed ad 3e fa 51 08 bf
       0.5176353 0.06100544 0.3397015 -0.53250086
000020 d1 79 dc bd be 39 9b be ae f9 5a bf 06 f9 a7 3e
       -0.10765422 -0.3031749 -0.8553723 0.32807177
000030 62 77 ee bd a7 a7 22 3e b0 12 ad be 72 29 67 3e
       -0.11643864 0.15884267 -0.3380332 0.22574404
000040 25 3a 73 3f e6 3b b4 3e 98 19 c6 3d fd 2c 92 bd
       0.95010597 0.3520195 0.0967285 -0.07137487
000050 9b fb e1 3e 32 f8 d2 bd fc e2 bc bd c2 95 38 3e
       0.44137272 -0.10301246 -0.09222981 0.18025878
000060 2a 1d 62 3e d8 51 ec 3c e8 24 92 3e b0 09 41 bf
       0.22081438 0.02884762 0.28543782 -0.75405407
000070 ee 06 3b bf 45 ad 2d 3f 54 f4 02 bd be 86 0e bf
       -0.7305745 0.67842513 -0.03197129 -0.5567435
000080 93 51 ce be 9a 57 aa 3e be ab 9f 3e 00 78 fc be
       -0.4029661 0.3326996 0.31185716 -0.49310303
000090 c5 18 53 3d 82 78 12 bf 6a 5e 8e 3e 82 05 0b 3e
       0.051537294 -0.5721513 0.27806407 0.1357632
0000a0 6e d5 01 3e a2 9d 07 3f a0 c5 5a 3d 15 43 9c 3e
       0.12679073 0.52974904 0.053411126 0.3051993
0000b0 f1 b9 cb 3e a5 ab 18 bf 2a 93 bd 3e c0 e7 df 3c
       0.397903 -0.5963691 0.3702634 0.027332187
0000c0 f6 5a 5a bd e0 7e fe 3c c8 91 c9 3d 6e ff 20 be
       -0.053309403 0.031066358 0.09842259 -0.15722439
0000d0 e2 db be bd 4b 38 81 be 0e 24 99 3e f5 21 ce 3e
       -0.09319283 -0.2523826 0.2991032 0.40260282
0000e0 96 da fa be 70 c7 b9 3d 4c a9 36 3f e6 64 26 3e
       -0.48994893 0.09071243 0.71352077 0.16249427
0000f0 89 0e b1 be a9 8d 95 be 55 59 eb 3e 54 c2 01 bf
       -0.34581402 -0.2920964 0.45966592 -0.50687146
000100 7d a8 ea 3e 14 28 17 bd c0 a5 80 3c 5c dd 27 bf
       0.4583167 -0.036903456 0.015704036 -0.6557214
000110 95 0d 4f 3f 2a e8 6e be a5 89 54 3e 30 40 3a bf
       0.808801 -0.23330751 0.20755632 -0.7275419
000120 95 ba 85 3e 18 06 18 bd 2f 96 28 3e 94 5e 95 3e
       0.26118913 -0.037115186 0.1646354 0.2917372

sequential/conv2d/Conv2D;StatefulPartitionedCall/sequential/conv2d/Conv2D f4 [76, 3, 3, 1]
000000 ad 30 72 3d 8c 0f 4c bc b4 e5 0e bd dc 29 d7 3c
       0.059128452 -0.012454879 -0.03488703 0.026265077
000010 28 ee a5 3a fd 51 bc 3c 5c f9 28 3c eb 48 c9 bc
       0.0012659477 0.022988314 0.010313358 -0.024570903
000020 aa db 42 3b 99 73 3c 3c ad 68 05 3e b7 40 72 be
       0.002973298 0.01150217 0.13028212 -0.23657499
000030 af ec e0 3c 50 83 c0 bc 78 8e ac be cd 5a 71 bb
       0.02745661 -0.023500115 -0.33702445 -0.0036827803
000040 e2 b7 86 bd 1c 3e 4f bb 9b 1f b3 bd c5 94 5c bd
       -0.065780416 -0.0031622713 -0.08746263 -0.053852815
000050 86 b5 5e bd ec 11 4a bc cd 7c 8c bd 76 fc 8d bd
       -0.054372333 -0.0123333745 -0.06859741 -0.06932919
000060 22 6c ce 3c cb e7 b8 bd c4 5c 04 bd 6e 27 3c bd
       0.025198046 -0.09028586 -0.03231503 -0.04593604
000070 0c 0b 0e 3e eb 76 22 bd 2f 25 d8 bc 91 04 bb 3d
       0.13871402 -0.03966419 -0.026384918 0.0913173
000080 ba 04 5d 3d ee d6 2d 3a 7b 19 37 3d bb c8 1b bd
       0.053959586 0.0006631453 0.044702034 -0.03803323
000090 ec d1 43 bc e3 88 39 3c df 63 d9 bc 76 75 f6 bc
       -0.011951905 0.01132414 -0.02653688 -0.030085307
0000a0 a4 b0 74 3b e7 b7 01 bc 33 6e 12 bd bf ce 3d bc
       0.0037336731 -0.007917381 -0.035749625 -0.011584937
0000b0 a7 20 7d bc eb 51 58 3d 3c 51 1d 3d 72 c4 c4 3b
       -0.015449679 0.052812498 0.03840755 0.0060048634
0000c0 be 10 8c 3c 8b 91 33 3d a5 48 2b 3d 0f a4 16 be
       0.017097827 0.043839972 0.041817326 -0.14711021
0000d0 0d ef 4c bc a6 e5 44 3d e3 3c 32 bc 2c 37 cf 3d
       -0.012508166 0.048070572 -0.010878774 0.10117945
0000e0 08 5e ba 3d 94 2b 12 bd ad d1 01 3e 0a f3 39 3d
       0.09099966 -0.03568609 0.12677641 0.045397796
0000f0 86 d5 8b bc e4 f6 b7 3d 1d 5c 8e bc 33 fd 6f bd
       -0.01706959 0.089826375 -0.017377907 -0.05859108
000100 66 08 be 3c b1 cf 66 bd fe 66 8f bc e2 09 9a 3c
       0.023197364 -0.056350414 -0.017505165 0.01880354
000110 4f 98 6f bc 18 f9 8a bb 8c 9a 51 3d ab 49 64 bd
       -0.014623716 -0.00424112 0.051172778 -0.055734318
000120 33 e5 8e bc af 65 f7 bc ee 1d 56 3e bb 42 bd 3d
       -0.017443275 -0.030199854 0.20909855 0.092412435
000130 aa d6 04 be 39 12 1c 3e ec 7e 01 bc ec 9a cc bd
       -0.12972513 0.15241326 -0.007903796 -0.099904865
000140 41 5d 80 3d 57 f2 a2 bc d9 c5 19 bc bd 6f 48 bd
       0.06267787 -0.019890947 -0.009385549 -0.048934687
000150 00 3c 1f 3d 01 27 5c bd b5 2a 52 39 30 9e 82 3d
       0.03887558 -0.053748135 0.0002004307 0.06377828
000160 82 ae 21 bd c0 08 99 3d 5c df 9a bc e4 bc c3 3d
       -0.039473064 0.07472372 -0.018905334 0.095575124
000170 17 08 a8 bd 5f c5 95 3d ff 24 d3 3d 2a 2b a7 bd
       -0.08204668 0.07313036 0.10309791 -0.0816253
000180 3a 4c c6 3c 9d b6 61 3d d4 23 ac 3d 46 ca 2e be
       0.02420627 0.055105794 0.08405271 -0.17069349
000190 8e 02 ed 3c 90 2a 14 bd e5 77 d3 bc b5 d2 8e bc
       0.028931882 -0.036173403 -0.025814006 -0.017434457
0001a0 2e 7c 2a 3d 14 df f8 3d 8c bc 34 bd c5 9b 7e 3d
       0.041622333 0.12151924 -0.044125125 0.062160272
0001b0 68 cd 6c 3e 6d 66 be 3d a4 39 79 3d 21 cf ee bc
       0.23125231 0.0929688 0.060845986 -0.029151501
0001c0 ce f6 a4 bd c9 61 b5 bd a2 e6 13 be 7b 51 43 bd
       -0.08054887 -0.08856542 -0.14443448 -0.047685128
0001d0 62 5b a5 bd 30 92 d2 bd b0 21 41 bd 76 e4 95 3d
       -0.080740705 -0.10281789 -0.047151268 0.07318966
0001e0 75 fd e8 bc c6 4b 9a 3d a6 e7 e2 3d de c9 24 3d
       -0.02844117 0.07533984 0.1107934 0.040231578
0001f0 25 05 b3 3d 1f d4 c1 bd 39 16 9c bc 83 96 3c be
       0.087412156 -0.09464287 -0.019053565 -0.1841679
000200 f6 70 87 be 60 74 e8 bd 06 78 98 3e 3c 71 10 be
       -0.2645337 -0.11350322 0.2977907 -0.14105695
000210 f4 9d c4 3d 1a 28 66 3e fe 84 b3 3d 8c a0 89 3e
       0.0960044 0.22476235 0.087656006 0.268803
000220 ba a8 97 3e 0f 74 79 be 58 7f ca be 6b ce 90 be
       0.29620916 -0.24360679 -0.3955028 -0.28282484
000230 16 62 ce 3e a8 d7 f3 3d ee 4c d9 3c 18 a0 79 be
       0.4030921 0.119063675 0.02652594 -0.24377477
000240 af ac 64 3e 76 d4 92 bd e6 49 c4 bc b6 c3 b6 3b
       0.22331499 -0.0716943 -0.023961019 0.00557753
000250 47 a5 ce bc 82 73 4a bd ef 7d 40 be d2 e9 03 3e
       -0.025225295 -0.049426563 -0.1879804 0.12882164
000260 20 d8 9d bc a6 87 59 3d 91 df a1 b9 ba 20 9d bc
       -0.019268095 0.05310788 -0.00030874883 -0.019180644
000270 5d a8 30 3b 84 7d 46 3b 75 f6 0c bd a7 b4 e3 3c
       0.002695582 0.0030287215 -0.034414727 0.027796103
000280 28 f1 76 bd 81 92 80 3c 83 c2 36 3d 49 2e c2 3d
       -0.06028858 0.015694859 0.044619095 0.094814844
000290 08 c5 c5 bd 2f 54 98 be a3 01 3e bd 59 9e 0f bd
       -0.09656721 -0.29751727 -0.04638828 -0.03506312
0002a0 f3 2b 3e 3e 50 25 81 bc 14 2a 86 3e bf 1d b9 bd
       0.18571453 -0.015764862 0.26203978 -0.09038877
0002b0 86 67 ef 3c 92 2d 55 bd f0 d6 b6 3d d4 14 a3 3d
       0.029224169 -0.052045412 0.08927715 0.07962957
0002c0 39 c8 1b 3c 60 53 b7 3d 62 cb e0 b9 31 e9 a8 3d
       0.009508186 0.089514494 -0.0004287614 0.08247603
0002d0 49 e7 f7 3c bd 03 0f 3e fd b0 bb bd 2f 1e 26 3c
       0.030261653 0.1396627 -0.09164617 0.010139032
0002e0 f0 4b cd 3d b8 b1 4f be 81 72 f8 3c 57 d5 39 3b
       0.100242496 -0.20282638 0.030328037 0.002835592
0002f0 4a 78 a3 bd e8 71 1e be 71 bd 67 be f7 a6 6e be
       -0.07981928 -0.1547314 -0.2263086 -0.2330588
000300 c1 bd c6 bd 47 38 eb 3c a6 35 07 3e cf 1e 4e 3e
       -0.097041614 0.028713359 0.13204059 0.2012894
000310 12 70 50 3e d4 35 27 3e 41 25 73 3d d0 5b ca 3c
       0.20355251 0.16329128 0.0593617 0.024701983
000320 3f c3 30 3b 6e 94 27 3d ba ba 33 3d 2b 78 c6 bc
       0.0026971844 0.040913038 0.04387925 -0.024227222
000330 15 31 02 3c bf 55 a0 bc d3 4e 20 bd e4 6c 0e be
       0.007946272 -0.019572137 -0.039137673 -0.13908726
000340 ec 14 e9 3d 58 ba d7 3d f7 9f 03 3e 59 cf a0 bb
       0.11380944 0.10533589 0.1285399 -0.0049075303
000350 10 6f b2 3d 44 f8 ae 3d 43 5f b8 bd d8 83 98 3c
       0.0871259 0.08543447 -0.09002545 0.018617555
000360 76 45 2e 3c 6a 30 c6 bd 95 a8 20 3e 56 56 b4 3d
       0.010636678 -0.09677203 0.15689309 0.0880553
000370 b8 53 3c 3d 8b a1 88 bd 3e e9 a3 bb 80 3c d1 bd
       0.045978278 -0.06671437 -0.00500217 -0.102166176
000380 03 6a ce bd 08 30 cb 3c 7d 16 96 bc 30 2a eb bc
       -0.10078814 0.024803177 -0.01832127 -0.02870664
000390 18 dc 50 3d b2 60 06 bd d0 ea 1f bd 21 6a 6a 3c
       0.050991148 -0.03280706 -0.039042294 0.01430753
0003a0 f9 0d 35 3d a9 18 9c bc 63 f0 76 3c b3 96 73 bd
       0.04420278 -0.019054728 0.015071961 -0.05946989
0003b0 3d f5 99 bc 64 2f e6 bc 64 f2 71 bd 83 33 4d 3c
       -0.018793697 -0.02809877 -0.059069052 0.012524488
0003c0 7c 37 ce 3d 7c 86 ee bc 6f 87 2c 3d 2e 73 08 be
       0.100691766 -0.029116862 0.042121347 -0.13325188
0003d0 72 da 97 bd 68 25 8b be 67 08 0c 3e 1b ec 2c bd
       -0.07414712 -0.27176976 0.1367508 -0.042217355
0003e0 07 77 03 be 59 b1 67 3d 42 2c 2b 3e d3 84 96 3e
       -0.12838374 0.056565616 0.16716102 0.29398212
0003f0 1f 1e 03 bb 97 65 ee bc d0 20 0e 3d 4e f3 8c bc
       -0.0020006967 -0.029101176 0.03469926 -0.01720586

sequential/depthwise_conv2d/depthwise;StatefulPartitionedCall/sequential/depthwise_conv2d/depthwise f4 [1, 3, 3, 76]
000000 0d c8 37 3e 18 f6 d1 3c e8 95 24 3b 18 9c e6 bb
       0.17947407 0.025630042 0.0025113765 -0.007037651
000010 2a 37 90 bb 49 0a f1 bc 40 67 09 3e 46 2f 6a bc
       -0.0044011073 -0.02942385 0.13418293 -0.014293497
000020 bd 38 18 be 45 83 75 3d df b9 63 3d e8 77 ab bd
       -0.14865394 0.05993964 0.055597182 -0.0837248
000030 7a 20 39 3e 5f 5d 1e be a8 bc 02 bc 50 ed f9 bc
       0.18078795 -0.15465306 -0.0079795495 -0.030508667
000040 e0 58 ba 3d dd 4a 0d 3d cd bb ae 3c 78 61 d5 3d
       0.09098983 0.034495223 0.021329785 0.10418981
000050 74 92 12 3e 1e cc 73 bd 81 3b 90 be 98 f5 c1 bd
       0.1431368 -0.059520833 -0.28170398 -0.094706714
000060 11 88 b1 3d 36 7c eb 3c 2c ae de 3d 1e 13 74 3d
       0.08668531 0.028745752 0.108730644 0.059588544
000070 a3 e8 ac bd 20 03 0a 3e f7 e6 2f 3e 6e 43 c2 bd
       -0.084428094 0.13477755 0.1717795 -0.094855174
000080 1c c5 fa bd be 44 3a bb cb 3f 13 bc 52 16 ad 3d
       -0.12244627 -0.0028422321 -0.008987377 0.08451523
000090 a4 9a 98 bc ed 03 e2 3d 53 a3 32 3c f0 a0 aa bd
       -0.018628426 0.11035905 0.010903197 -0.08331478
0000a0 3a 47 62 3c 41 6e 09 bd a2 df c6 bd 4e a3 29 3b
       0.013810927 -0.033552412 -0.09710623 0.002588469
0000b0 0b 26 16 3e fb 25 f4 3d 21 4e 4a 3e eb ec 8b 3c
       0.1466295 0.11921307 0.19756366 0.017080745
0000c0 f5 65 d3 bc c0 f3 b0 bd 34 e8 4b 3e 14 7d 1b 3d
       -0.025805453 -0.086402416 0.19912797 0.03796108
0000d0 5f 39 aa 3d 34 53 7b bd c6 16 09 bd 37 11 ec 3c
       0.08311724 -0.061358646 -0.033468984 0.028816802
0000e0 7a c6 a0 bd f4 fe d6 bd e9 95 e0 3d 48 a9 33 bd
       -0.078503564 -0.10497847 0.10966093 -0.04386261
0000f0 fe c3 f3 3c cb da e9 3d 04 16 6c bb 5e 08 4e 3e
       0.029756542 0.114186846 -0.0036023865 0.2012038
000100 0b ff 62 3d 39 7d 9e bd 92 13 0f be bc 39 c8 3c
       0.05541901 -0.07738728 -0.13972309 0.024441592
000110 0c ee ea bd 98 c8 49 bd 8b a7 e5 3d 74 a9 13 bd
       -0.11471185 -0.049263567 0.11213597 -0.036050275
000120 f2 1c 12 be 13 20 fb ba d9 5d 09 bd 4c d9 dc bd
       -0.14268854 -0.0019159339 -0.033536766 -0.107836336
000130 ff 9f 0e bd da b4 97 bd 78 39 cf 3b b3 5f 6f bc
       -0.034820553 -0.074075416 0.0063239895 -0.014610219
000140 a5 20 15 3e b3 d8 2f bd c7 c0 83 bd b8 26 01 bd
       0.14563234 -0.04293127 -0.06433254 -0.031531066
000150 83 2a ab 3d 8c b4 81 bc 08 80 02 be 9c 27 43 3d
       0.08357718 -0.015833162 -0.12744153 0.047645196
000160 09 5d 3c 3d 55 b5 ff 3d 69 ec 01 bc 85 5c 01 be
       0.045987163 0.12485758 -0.0079299 -0.1263295
000170 f3 65 90 3c 4e d0 81 bd 35 e3 4b 3d cd 8a d8 bc
       0.017626738 -0.06338559 0.04977723 -0.026433373
000180 29 d7 d9 3d 2e 77 f3 3c 8c e6 9d bd 2f 66 51 bc
       0.10636742 0.029719915 -0.07709989 -0.01278071
000190 77 91 0c be bb 81 7d 3c 31 27 43 bd c1 01 ee bc
       -0.13727365 0.015472825 -0.047644798 -0.02905357
0001a0 d9 8b 28 3d 7e a5 a4 bc 93 16 d5 bd 24 f2 8e 3d
       0.041148994 -0.020098444 -0.10404696 0.069797784
0001b0 a2 30 1d bc cf ef bb 3d 66 e1 e0 bc 6f 80 04 be
       -0.0095941145 0.09176599 -0.027451228 -0.12939619
0001c0 ae 41 87 bc 34 a0 2f 3e 8c ea 96 3c a9 66 94 bd
       -0.01651081 0.17150956 0.018422388 -0.07246143
0001d0 4e 3d d0 3c 1c 36 91 3d d0 c1 03 3c d5 f8 b0 3c
       0.025419857 0.07090399 0.008041814 0.021603027
0001e0 84 95 ae bd 97 b2 20 3d a0 39 99 bd a6 1b a2 3e
       -0.085246116 0.039232817 -0.07481694 0.3166172
0001f0 40 7d 31 3d f4 58 67 be 9b c7 4d bd 69 7b 07 be
       0.04333234 -0.22592527 -0.050239187 -0.13230671
000200 77 ec 81 be c3 d9 60 3d ec 51 5c bc 3c 6f a8 bc
       -0.2537572 0.054895174 -0.013447266 -0.020560853
000210 c7 64 80 be 92 a6 0c bd df 9e 80 3d c7 51 c0 bd
       -0.25076887 -0.03433854 0.06280302 -0.09390598
000220 17 2a ae 3c 0f 95 ba bd 31 50 93 3d 0e 53 ee 3d
       0.021260304 -0.09110462 0.0719303 0.11636935
000230 68 25 03 3d 4d 92 4e bd bf a5 f4 3d 9e e0 c7 3d
       0.032018095 -0.050432492 0.11945676 0.09759639
000240 e1 ee 45 3e 48 09 aa bd ba c3 8b bd 81 b7 19 3d
       0.19329406 -0.083025515 -0.06824441 0.03752852
000250 43 21 a4 3d d9 3c dd 3c 9b f4 17 be 7d f7 8c 3d
       0.08014157 0.027006553 -0.14839403 0.06883142
000260 47 a1 d9 3d c1 81 00 be ed d5 0f be 8c ad 9e 3d
       0.10626464 -0.12549497 -0.1404645 0.07747945
000270 d8 e3 ec 3c 75 b1 15 bd 18 7e 13 be 95 af c7 bb
       0.028917238 -0.03654619 -0.1440357 -0.006093929
000280 57 c5 4e 3a 39 ad 8c bd 92 c3 4b bd 59 19 39 3d
       0.00078876823 -0.06868977 -0.049747057 0.04519019
000290 3b 56 58 3d ab b1 65 3c 86 f6 27 be d7 14 9a 3c
       0.05281661 0.01401941 -0.16402635 0.018808765
0002a0 f6 0f e2 3c f7 90 1a bc 15 74 4a be c8 2f 2a bd
       0.027595501 -0.009433976 -0.19770844 -0.041549474
0002b0 34 2a a9 38 d2 1f b7 3d ed 81 a6 3d e5 d2 99 bd
       8.066409e-05 0.08941616 0.0813025 -0.07510928
0002c0 3b 6d 85 3d a5 9f 9b bd 71 22 77 bd 14 60 72 3c
       0.06514975 -0.07598809 -0.06033558 0.014793415
0002d0 60 b3 03 bc cb 3c 88 bd b2 ee df 3d 26 49 f1 ba
       -0.008038372 -0.0665222 0.109341994 -0.0018408641
0002e0 74 fb 33 be 44 22 81 bd b7 c6 50 3d 04 35 35 be
       -0.1757639 -0.06305364 0.05097076 -0.17696005
0002f0 5b 8c 14 3d 1a 2f b3 3d 13 2b 24 be 9e ff 7e bc
       0.036266666 0.08749218 -0.16032057 -0.015563874
000300 44 bf 1c 3e b7 02 c2 3d 39 14 b7 bd 87 34 f1 3d
       0.15307337 0.09473174 -0.08939404 0.11777597
000310 5e b4 93 bd 52 4b a7 bc a0 e2 8a bb 78 d3 b1 3d
       -0.07212137 -0.020421658 -0.0042384416 0.086829126
000320 67 23 c7 3d b3 ff 6e be f1 aa 51 bd 8b ce 56 bc
       0.09723549 -0.23339729 -0.051188413 -0.013110767
000330 e4 31 5c bd 2a 1c af 3d e4 a6 a9 3d 6d 3f 22 3e
       -0.053758517 0.08550294 0.08283785 0.15844508
000340 b6 c2 34 3a 55 39 38 3e ef 6d 32 3d 94 19 d2 bd
       0.0006895469 0.1799062 0.043561872 -0.10258785
000350 95 c8 8d bc 88 6c a2 bb 63 a1 00 be 9d b3 b2 bd
       -0.017307559 -0.0049567856 -0.12561564 -0.08725665
000360 15 e0 6f 3d fe a8 aa bd 2d fd ad bd ed 52 a8 3d
       0.05856331 -0.08333014 -0.08495555 0.08218942
000370 eb 41 1b bd 0f 46 41 3e 14 1a e0 bd 13 7a 27 3e
       -0.03790466 0.18874381 -0.10942474 0.16355161
000380 c1 b3 91 3d 67 ad 5b 3d 79 3a 22 3d 32 e2 e0 bd
       0.071143635 0.053632166 0.039606545 -0.10980643
000390 f6 97 d1 bc b0 6e 4b bd d0 10 93 3d cc fe c1 3d
       -0.025585156 -0.049666107 0.07180941 0.09472427
0003a0 28 1a a5 3c 01 ae 51 3d 7d 91 57 3a cd a4 fb bb
       0.020154074 0.051191334 0.00082232786 -0.007679558
0003b0 d6 51 c0 3b f6 0e 95 3d d4 6a d2 bd e3 b2 80 bd
       0.0058691306 0.07278244 -0.10274282 -0.0628412
0003c0 38 90 d2 3d f7 df 26 3d e0 8b 78 3d a3 6e 83 bd
       0.10281414 0.040740933 0.06068027 -0.06417587
0003d0 4f 90 ab bc a6 a2 d8 3c 5f d4 90 3d 2c 20 82 3d
       -0.020942835 0.026444744 0.070717566 0.063537925
0003e0 fb 80 dd 3d 11 bb 67 3d bd 1a 6e 3d db d4 66 bd
       0.10815617 0.056574885 0.05813097 -0.05635534
0003f0 74 3a 5d bc 25 47 4c 3d 8d b9 63 bd 2a f9 da 3d
       -0.013502706 0.049872536 -0.055596877 0.106920555

sequential/conv2d_1/Conv2D;StatefulPartitionedCall/sequential/conv2d_1/Conv2D i1 [76, 1, 1, 76] scale=0.032605823 zero_point=0
000000 22 06 e4 d7 1e 25 1b 03 06 f3 3a f0 b9 ec d8 01
       1.108598 0.19563493 -0.91296303 -1.3368387 0.9781747 1.2064154 0.8803572 0.097817466 0.19563493 -0.4238757 1.8911377 -0.52169317 -2.3150134 -0.6521165 -1.304233 0.032605823
000010 0f 14 00 ea ec c0 1a 29 d2 2e f5 0d ee 21 f0 08
       0.48908734 0.6521165 0.0 -0.71732813 -0.6521165 -2.0867727 0.8477514 1.3368387 -1.4998679 1.4998679 -0.35866407 0.4238757 -0.5869048 1.0759921 -0.52169317 0.26084659
000020 d2 00 07 02 d9 17 d5 00 41 ec d8 d8 e2 f1 eb 14
       -1.4998679 0.0 0.22824076 0.065211646 -1.2716271 0.74993396 -1.4020504 0.0 2.1193786 -0.6521165 -1.304233 -1.304233 -0.9781747 -0.48908734 -0.6847223 0.6521165
000030 11 0f 33 01 15 dc e8 fa 06 17 39 0c 00 11 f3 f4
       0.554299 0.48908734 1.662897 0.032605823 0.6847223 -1.1738096 -0.7825397 -0.19563493 0.19563493 0.74993396 1.858532 0.39126986 0.0 0.554299 -0.4238757 -0.39126986
000040 d4 bc d9 1c 09 30 01 15 01 fb 1a 0b f1 ff 04 1a
       -1.4346563 -2.217196 -1.2716271 0.91296303 0.2934524 1.5650795 0.032605823 0.6847223 0.032605823 -0.16302912 0.8477514 0.35866407 -0.48908734 -0.032605823 0.13042329 0.8477514
000050 1c 01 f4 df da e2 23 fd ee e4 05 f9 33 17 e6 dc
       0.91296303 0.032605823 -0.39126986 -1.0759921 -1.2390213 -0.9781747 1.1412038 -0.097817466 -0.5869048 -0.91296303 0.16302912 -0.22824076 1.662897 0.74993396 -0.8477514 -1.1738096
000060 ea ed 03 e4 f3 ef d5 28 f0 35 ed d3 11 18 14 04
       -0.71732813 -0.61951065 0.097817466 -0.91296303 -0.4238757 -0.554299 -1.4020504 1.304233 -0.52169317 1.7281086 -0.61951065 -1.467262 0.554299 0.7825397 0.6521165 0.13042329
000070 06 2c 61 ef 07 15 1e 09 0c 18 d4 ce 16 ed e8 ce
       0.19563493 1.4346563 3.1627648 -0.554299 0.22824076 0.6847223 0.9781747 0.2934524 0.39126986 0.7825397 -1.4346563 -1.6302911 0.71732813 -0.61951065 -0.7825397 -1.6302911
000080 48 e1 1b fb 21 0a f2 1c cf e6 1e c0 e7 f3 19 e5
       2.3476193 -1.0107806 0.8803572 -0.16302912 1.0759921 0.32605824 -0.45648152 0.91296303 -1.5976853 -0.8477514 0.9781747 -2.0867727 -0.81514555 -0.4238757 0.81514555 -0.8803572
000090 3b df 36 1f f2 e2 15 fd ff f8 f9 d9 21 f3 f3 f5
       1.9237436 -1.0759921 1.7607144 1.0107806 -0.45648152 -0.9781747 0.6847223 -0.097817466 -0.032605823 -0.26084659 -0.22824076 -1.2716271 1.0759921 -0.4238757 -0.4238757 -0.35866407
0000a0 e6 dc 0d 2e d2 11 02 08 f7 0b f7 00 1d 00 0d 48
       -0.8477514 -1.1738096 0.4238757 1.4998679 -1.4998679 0.554299 0.065211646 0.26084659 -0.2934524 0.35866407 -0.2934524 0.0 0.94556886 0.0 0.4238757 2.3476193
0000b0 26 2f 1f 08 df 1e 0c 58 15 f9 05 0c f9 e2 09 00
       1.2390213 1.5324737 1.0107806 0.26084659 -1.0759921 0.9781747 0.39126986 2.8693125 0.6847223 -0.22824076 0.16302912 0.39126986 -0.22824076 -0.9781747 0.2934524 0.0
0000c0 18 f2 32 f2 e4 e2 36 e5 26 dd 15 25 f0 f1 10 20
       0.7825397 -0.45648152 1.6302911 -0.45648152 -0.91296303 -0.9781747 1.7607144 -0.8803572 1.2390213 -1.1412038 0.6847223 1.2064154 -0.52169317 -0.48908734 0.52169317 1.0433863
0000d0 f2 0e ed e6 1f e9 31 b9 f9 17 be 01 e2 06 37 ee
       -0.45648152 0.45648152 -0.61951065 -0.8477514 1.0107806 -0.74993396 1.5976853 -2.3150134 -0.22824076 0.74993396 -2.1519842 0.032605823 -0.9781747 0.19563493 1.7933203 -0.5869048
0000e0 0d b8 f2 df 17 3f 05 29 fd e2 2a 1e c8 09 ee 25
       0.4238757 -2.3476193 -0.45648152 -1.0759921 0.74993396 2.0541668 0.16302912 1.3368387 -0.097817466 -0.9781747 1.3694446 0.9781747 -1.8259261 0.2934524 -0.5869048 1.2064154
0000f0 0b e8 e9 31 cc d2 22 db c2 f1 43 15 fe d1 16 bc
       0.35866407 -0.7825397 -0.74993396 1.5976853 -1.6955028 -1.4998679 1.108598 -1.2064154 -2.0215611 -0.48908734 2.18459 0.6847223 -0.065211646 -1.5324737 0.71732813 -2.217196

sequential/depthwise_conv2d_1/depthwise;StatefulPartitionedCall/sequential/depthwise_conv2d_1/depthwise f4 [1, 3, 3, 76]
000000 15 66 1c 3e 3b 07 72 be f0 fb 38 be 40 d5 05 3d
       0.15273316 -0.2363557 -0.18064857 0.032674074
000010 09 a2 d6 3d 54 29 b4 3d c4 e2 0c be 47 05 e5 3d
       0.104801245 0.08796945 -0.13758379 0.11182647
000020 34 90 17 be f7 f0 fc 3a db 0a 45 3d 6c 26 c3 3c
       -0.14801103 0.0019297887 0.048106056 0.023822032
000030 1c 63 d8 bd 72 2b 46 bc fb e2 fa bd 6c c2 dd bc
       -0.105657786 -0.012095319 -0.12250324 -0.027070247
000040 44 85 a2 bd 3b a7 5d bd 6f b3 1a 3e 22 0d df bb
       -0.07935575 -0.05411456 0.15107511 -0.0068069855
000050 3b 15 61 3e 96 96 d3 3d ad 9d 06 3d 17 de 4d 3e
       0.21980755 0.10331456 0.032865215 0.20104252
000060 c6 2a c6 3e f3 19 c7 3d 78 00 c5 bd 90 c7 4e 3b
       0.3870451 0.09721746 -0.0961923 0.0031552054
000070 dd 39 4e 3e 66 1d 19 be dd fd 49 3e 3d 04 ea bc
       0.2013926 -0.14952621 0.19725747 -0.028566474
000080 3c a9 b6 3d d1 86 d2 bd 3d b3 23 3e 98 77 d5 3d
       0.08918998 -0.102796204 0.15986343 0.10423201
000090 4c 53 b9 3d da 06 16 bc 8d 0f 5f be ae 2f ed bd
       0.09049091 -0.009156907 -0.21783276 -0.1158136
0000a0 c1 40 98 3d 50 3b f6 3b 0c 3d c9 bd cb 70 a4 bd
       0.07434226 0.007514395 -0.09826097 -0.08029326
0000b0 04 fd e4 3d 9c cb 8f bd 74 3a e0 3d 9c 6c 2e 3e
       0.111810714 -0.07021257 0.10948649 0.17033619
0000c0 11 d3 f5 3d da a5 60 bc 70 8b 6f 3e 9f 69 37 bd
       0.12003148 -0.013711417 0.23393035 -0.044778462
0000d0 a3 a7 04 3e 20 9b a0 bd a2 0a 41 3e 24 db fa 3d
       0.12954573 -0.07842088 0.18851712 0.12248829
0000e0 e3 95 d7 3c ef 5c 50 be 60 99 a8 3d 63 bc 6b 3d
       0.026316589 -0.20347951 0.08232379 0.057552706
0000f0 39 46 ab 3d c6 3c 36 3e 5e a3 34 be 7e 04 bb 3d
       0.08363003 0.1779662 -0.17640445 0.09131716
000100 0b 43 20 be ad 94 d7 3d 13 03 4d be b4 bc a6 3c
       -0.15650575 0.105264045 -0.20020704 0.020353653
000110 4a 1f 19 be ee 32 c6 3c a7 6c 12 3e c4 d3 a4 bd
       -0.14953342 0.024194207 0.1429926 -0.080482036
000120 c5 20 44 3e f7 01 a0 be 46 99 10 be 76 80 ca 3d
       0.19153126 -0.312515 -0.14120969 0.09887783
000130 5d 7d f9 3d 23 08 5f 3d fd 7b 24 3d 26 77 85 3d
       0.12182114 0.05445112 0.040157307 0.065168664
000140 f6 15 6d 3d 48 4d 07 bd 14 b1 3f be 40 38 b5 bd
       0.05788227 -0.033032686 -0.18719894 -0.088486195
000150 83 22 b6 bd da de 67 3d d6 c2 33 3d b8 59 4e 3e
       -0.08893301 0.056609012 0.043886982 0.20151412
000160 d2 f6 92 3d 55 e6 1a 3e ee 52 93 3d ba 5b eb 3d
       0.071759835 0.15126927 0.07193552 0.11492105
000170 1f 69 d9 bd 7c b8 ba bd 2a dd c7 3d e2 7b 09 3e
       -0.106157534 -0.09117219 0.097589806 0.13426164
000180 9f ef 29 3e 7d 04 09 3e ef 14 19 3e f2 96 83 bc
       0.16595314 0.13380618 0.14949392 -0.016063187
000190 7b 1a b8 3d 7d f7 87 bc a2 ea 1c be 39 d1 b4 3c
       0.08989426 -0.016597504 -0.1532388 0.022072421
0001a0 1c 8a 94 bd 85 e0 8a bd 1e 4e 21 3d 68 34 45 be
       -0.07252905 -0.06781105 0.03938114 -0.19258273
0001b0 ee 30 c9 3c c0 b2 11 be a9 de 56 bd c6 3e b7 bd
       0.024559464 -0.14228344 -0.05245844 -0.0894752
0001c0 b4 d1 85 bd a6 ff 14 3d 5e 0e 8f bd a0 0a 07 be
       -0.06534138 0.036376618 -0.06985162 -0.13187647
0001d0 10 c4 d1 3d ce d0 44 3c 9d eb bb bd fb eb d8 bc
       0.10242474 0.012012674 -0.09175799 -0.026479712
0001e0 01 0d 68 3c 24 9f ca bd 0c 94 84 3d 34 1b 60 3e
       0.014163257 -0.09893635 0.0647355 0.21885377
0001f0 78 c3 9c bd a1 4e ed bd 57 bd dd bc 07 50 8e bd
       -0.0765447 -0.11587263 -0.027067823 -0.06948858
000200 5e dc 0b 3e 99 c2 4a bd 40 9e 24 3e 71 53 75 bc
       0.13658282 -0.04950199 0.16075993 -0.014973507
000210 25 f2 1f bd d6 8e be 3c 38 78 88 3d d1 f7 43 3d
       -0.039049286 0.023261469 0.06663555 0.047843758
000220 ac 7d 91 3d 15 dd cc 3d bc b8 db bd 8b d5 44 3e
       0.07104048 0.100031056 -0.10728595 0.19222085
000230 b4 95 38 bd b5 bd a2 3d 3a 8e d5 bc 66 40 92 3e
       -0.045064643 0.0794634 -0.026068795 0.28564757
000240 95 28 a4 3d 95 83 36 3e e2 c4 9d 3d 2f 2f f0 3d
       0.08015553 0.17823632 0.07703568 0.117277496
000250 5b 7c a6 3d 52 cc 90 bb b1 96 c8 bd 80 17 12 bd
       0.08129188 -0.004418888 -0.09794367 -0.035666943
000260 9b 7c 63 3d 14 c3 62 bd 6a cf cc 3d ba af 9e 3d
       0.055538755 -0.055361822 0.100004986 0.07748361
000270 da f1 07 be ba b1 6f 3d 8b b2 8e bd 77 22 05 be
       -0.13275853 0.058519103 -0.06967648 -0.13001429
000280 a6 60 31 3a ca d2 24 3e f7 d7 06 3e b2 2c f2 3c
       0.0006766416 0.16096035 0.13168322 0.029562328
000290 da cb 25 3e 41 2a b4 3d 25 cc ad 3d e4 20 7a 3e
       0.16191044 0.08797122 0.08486203 0.2442661
0002a0 4e ab 25 bd 7a 26 b5 bc 0c 07 fa 3d 5d f0 af bd
       -0.040446572 -0.022113074 0.12208375 -0.085907675
0002b0 49 33 bb 3d da 6a 36 3e d9 d9 ad 3e 21 1a ba 3d
       0.09140641 0.17814198 0.33955267 0.09087015
0002c0 63 db 5c bd 14 5a 33 be ea a7 80 bd 4a a7 52 3e
       -0.05392016 -0.17514831 -0.06282027 0.20571628
0002d0 87 db d1 bd 97 69 08 bd 2e 22 55 bd b6 95 e3 bd
       -0.1024695 -0.033303823 -0.05203455 -0.111125395
0002e0 fb 3b 53 bd b5 1a e2 bc 16 2b b8 bd 77 33 7b be
       -0.051570874 -0.027600626 -0.08992593 -0.24531351
0002f0 ff a4 2e 3e c7 80 80 be 49 5c 0f be ce 15 da bd
       0.17055129 -0.2509825 -0.14000048 -0.1064869
000300 b2 5c 31 bd f6 7b 23 3e 63 7d aa bd 9e 54 9f 3c
       -0.04330129 0.15965256 -0.08324697 0.019449528
000310 ee bc bd bd 20 46 15 be e2 69 01 3e 4f eb b7 3c
       -0.09264551 -0.14577532 0.12638047 0.022451071
000320 ef 66 72 bd ec 0e f5 bd 44 f3 da 3d 3d ba 4d be
       -0.059180196 -0.11965737 0.106909305 -0.20090576
000330 35 d5 55 3d cf 1a cb 3d 32 f4 ae 3d 59 5e 43 be
       0.052205283 0.09917223 0.0854267 -0.1907896
000340 b9 3b 35 3e 5a cc cb 3d c3 d7 06 be cb b5 12 be
       0.17698564 0.09951086 -0.13168244 -0.14327161
000350 a7 8e 88 3e da fd 52 3d b1 99 ad bc bb b5 33 3c
       0.26671335 0.051511623 -0.02119145 0.010968621
000360 20 06 2b bc 29 79 5a 3d 51 5e 35 bd de 7a fd bd
       -0.010438472 0.053338204 -0.0442794 -0.12376951
000370 ee 65 14 3e a1 dc 6f bd 61 af 72 3a ce b8 df 3c
       0.14492008 -0.058560017 0.0009257701 0.027309801
000380 41 79 5b 3d a8 0f be 3d 76 06 2e bc e4 d8 3f bd
       0.053582434 0.0928033 -0.010621658 -0.046837702
000390 26 f1 02 3e a6 1c 20 be f7 13 11 be bf 6e 6e 3d
       0.12787303 -0.15635929 -0.14167772 0.058211084
0003a0 7c 64 93 3d dd 9e b0 3d 1c f6 f0 bd cf ad e9 3d
       0.071969 0.08624051 -0.11765692 0.114101045
0003b0 0c f0 9f bd 1a 19 cd bc f4 fc 21 3d 72 01 d8 3c
       -0.07809457 -0.025036383 0.039547876 0.026367877
0003c0 dc 65 a0 bd f5 29 a7 3c e5 91 07 bd b3 ef b4 3b
       -0.07831928 0.020405749 -0.03309812 0.0055217384
0003d0 86 6b 8f bd d8 47 7b bd bd 5b f4 3d 86 c8 52 3d
       -0.0700293 -0.061347812 0.1193156 0.051460765
0003e0 9e 9f 07 3e 9c a9 27 3d 5a ea 64 3c 61 16 20 3e
       0.13244483 0.040933236 0.013971889 0.15633537
0003f0 65 59 87 3e 85 fb 67 3c e1 3c fd bd f8 d3 f3 3c
       0.2643539 0.014159088 -0.12365127 0.02976416

sequential/conv2d_2/Conv2D;StatefulPartitionedCall/sequential/conv2d_2/Conv2D f4 [76]
000000 00 00 00 00 00 00 00 00 00 00 00 00 00 00 00 00
       0.0 0.0 0.0 0.0
000010 00 00 00 00 00 00 00 00 00 00 00 00 00 00 00 00
       0.0 0.0 0.0 0.0
000020 00 00 00 00 00 00 00 00 00 00 00 00 00 00 00 00
       0.0 0.0 0.0 0.0
000030 00 00 00 00 00 00 00 00 00 00 00 00 00 00 00 00
       0.0 0.0 0.0 0.0
000040 00 00 00 00 00 00 00 00 00 00 00 00 00 00 00 00
       0.0 0.0 0.0 0.0
000050 00 00 00 00 00 00 00 00 00 00 00 00 00 00 00 00
       0.0 0.0 0.0 0.0
000060 00 00 00 00 00 00 00 00 00 00 00 00 00 00 00 00
       0.0 0.0 0.0 0.0
000070 00 00 00 00 00 00 00 00 00 00 00 00 00 00 00 00
       0.0 0.0 0.0 0.0
000080 00 00 00 00 00 00 00 00 00 00 00 00 00 00 00 00
       0.0 0.0 0.0 0.0
000090 00 00 00 00 00 00 00 00 00 00 00 00 00 00 00 00
       0.0 0.0 0.0 0.0
0000a0 00 00 00 00 00 00 00 00 00 00 00 00 00 00 00 00
       0.0 0.0 0.0 0.0
0000b0 00 00 00 00 00 00 00 00 00 00 00 00 00 00 00 00
       0.0 0.0 0.0 0.0
0000c0 00 00 00 00 00 00 00 00 00 00 00 00 00 00 00 00
       0.0 0.0 0.0 0.0
0000d0 00 00 00 00 00 00 00 00 00 00 00 00 00 00 00 00
       0.0 0.0 0.0 0.0
0000e0 00 00 00 00 00 00 00 00 00 00 00 00 00 00 00 00
       0.0 0.0 0.0 0.0
0000f0 00 00 00 00 00 00 00 00 00 00 00 00 00 00 00 00
       0.0 0.0 0.0 0.0
000100 00 00 00 00 00 00 00 00 00 00 00 00 00 00 00 00
       0.0 0.0 0.0 0.0
000110 00 00 00 00 00 00 00 00 00 00 00 00 00 00 00 00
       0.0 0.0 0.0 0.0
000120 00 00 00 00 00 00 00 00 00 00 00 00 00 00 00 00
       0.0 0.0 0.0 0.0

sequential/conv2d_2/Conv2D;StatefulPartitionedCall/sequential/conv2d_2/Conv2D1 i1 [76, 1, 1, 76] scale=0.039658148 zero_point=0
000000 f4 1e f9 e8 c4 18 db 09 e5 f5 14 11 c2 f7 1d 03
       -0.4758978 1.1897445 -0.27760702 -0.9517956 -2.379489 0.9517956 -1.4673514 0.35692334 -1.07077 -0.43623963 0.79316294 0.6741885 -2.458805 -0.35692334 1.1500863 0.11897445
000010 0a d7 e8 ef dd 34 12 ce 3b 0f ed c4 2e 11 25 07
       0.39658147 -1.6259841 -0.9517956 -0.6741885 -1.3880352 2.0622237 0.7138467 -1.9829074 2.3398306 0.59487224 -0.7535048 -2.379489 1.8242748 0.6741885 1.4673514 0.27760702
000020 d6 ea fc d1 1c f6 c9 01 f0 07 25 07 15 f3 0e fc
       -1.6656423 -0.87247926 -0.15863259 -1.863933 1.1104281 -0.39658147 -2.1811981 0.039658148 -0.63453037 0.27760702 1.4673514 0.27760702 0.83282113 -0.5155559 0.55521405 -0.15863259
000030 e2 f7 14 05 08 fe 05 de de 0d c2 f8 11 24 f3 f1
       -1.1897445 -0.35692334 0.79316294 0.19829074 0.31726518 -0.079316296 0.19829074 -1.348377 -1.348377 0.5155559 -2.458805 -0.31726518 0.6741885 1.4276934 -0.5155559 -0.59487224
000040 09 d5 df 2a 1b 1b 20 d1 f0 09 12 21 f6 34 46 4b
       0.35692334 -1.7053003 -1.3087189 1.6656423 1.07077 1.07077 1.2690607 -1.863933 -0.63453037 0.35692334 0.7138467 1.3087189 -0.39658147 2.0622237 2.7760704 2.9743612
000050 d3 cf 29 ed 32 46 f7 24 19 f9 b5 eb 2f d8 c6 0f
       -1.7846167 -1.9432492 1.6259841 -0.7535048 1.9829074 2.7760704 -0.35692334 1.4276934 0.9914537 -0.27760702 -2.9743612 -0.83282113 1.863933 -1.5863259 -2.3001726 0.59487224
000060 3a 18 06 0b 16 27 e0 e4 e5 f1 0b 08 0d 23 cf 58
       2.3001726 0.9517956 0.2379489 0.43623963 0.87247926 1.5466678 -1.2690607 -1.1104281 -1.07077 -0.59487224 0.43623963 0.31726518 0.5155559 1.3880352 -1.9432492 3.489917
000070 fd 04 1c c2 2c e1 f5 19 b0 d6 24 fe 04 f9 2f 13
       -0.11897445 0.15863259 1.1104281 -2.458805 1.7449585 -1.2294025 -0.43623963 0.9914537 -3.1726518 -1.6656423 1.4276934 -0.079316296 0.15863259 -0.27760702 1.863933 0.7535048
000080 19 fe 2c c3 07 26 01 1c ea 09 23 dd 1a 1e 0c f2
       0.9914537 -0.079316296 1.7449585 -2.419147 0.27760702 1.5070096 0.039658148 1.1104281 -0.87247926 0.35692334 1.3880352 -1.3880352 1.0311118 1.1897445 0.4758978 -0.55521405
000090 03 17 02 08 3c fb fa 08 c7 15 f8 f8 23 db c8 13
       0.11897445 0.9121374 0.079316296 0.31726518 2.379489 -0.19829074 -0.2379489 0.31726518 -2.2605145 0.83282113 -0.31726518 -0.31726518 1.3880352 -1.4673514 -2.2208562 0.7535048
0000a0 e2 d6 e7 c3 fb 64 19 5e 1b d1 24 12 09 e2 05 19
       -1.1897445 -1.6656423 -0.9914537 -2.419147 -0.19829074 3.9658148 0.9914537 3.727866 1.07077 -1.863933 1.4276934 0.7138467 0.35692334 -1.1897445 0.19829074 0.9914537
0000b0 d6 f8 06 08 30 28 15 bd 29 11 d1 1b f7 12 e6 ef
       -1.6656423 -0.31726518 0.2379489 0.31726518 1.9035912 1.5863259 0.83282113 -2.657096 1.6259841 0.6741885 -1.863933 1.07077 -0.35692334 0.7138467 -1.0311118 -0.6741885
0000c0 f7 30 0c e6 2a 35 01 4e 1e 0b 9e 37 14 35 ac 1f
       -0.35692334 1.9035912 0.4758978 -1.0311118 1.6656423 2.1018817 0.039658148 3.0933356 1.1897445 0.43623963 -3.8864985 2.1811981 0.79316294 2.1018817 -3.3312845 1.2294025
0000d0 05 b7 f8 ee e0 e7 ed 3e c9 e3 ee f9 23 0c f5 2e
       0.19829074 -2.8950448 -0.31726518 -0.7138467 -1.2690607 -0.9914537 -0.7535048 2.458805 -2.1811981 -1.1500863 -0.7138467 -0.27760702 1.3880352 0.4758978 -0.43623963 1.8242748
0000e0 26 0e 17 c0 cb c4 29 24 e6 ee 3e f8 ef 46 07 cf
       1.5070096 0.55521405 0.9121374 -2.5381215 -2.1018817 -2.379489 1.6259841 1.4276934 -1.0311118 -0.7138467 2.458805 -0.31726518 -0.6741885 2.7760704 0.27760702 -1.9432492
0000f0 21 f6 1c fb 1e 26 f4 b2 e3 0c 24 51 c8 f2 cd 23
       1.3087189 -0.39658147 1.1104281 -0.19829074 1.1897445 1.5070096 -0.4758978 -3.0933356 -1.1500863 0.4758978 1.4276934 3.21231 -2.2208562 -0.55521405 -2.0225656 1.3880352
